…
Output: /mvdlph/shahd/MVCNNPH/results_multiview_early_fusion_all_except_E3_E7_E9_velocity_only/len120
Train: 216
Validation: 69
Test: 79
Bad files: 53
Incomplete trials: 12
Skipped excluded exercises: 4517
X_fit: (216, 120, 306)
X_val: (69, 120, 306)
X_test: (79, 120, 306)
Model: "model"
_________________________________________________________________
Layer (type)                 Output Shape              Param #   
=================================================================
early_fusion_input (InputLay [(None, 120, 306)]        0         
_________________________________________________________________
conv1d (Conv1D)              (None, 120, 16)           24496     
_________________________________________________________________
batch_normalization (BatchNo (None, 120, 16)           64        
_________________________________________________________________
max_pooling1d (MaxPooling1D) (None, 60, 16)            0         
_________________________________________________________________
conv1d_1 (Conv1D)            (None, 60, 24)            1176      
_________________________________________________________________
batch_normalization_1 (Batch (None, 60, 24)            96        
_________________________________________________________________
max_pooling1d_1 (MaxPooling1 (None, 30, 24)            0         
_________________________________________________________________
conv1d_2 (Conv1D)            (None, 30, 24)            1752      
_________________________________________________________________
batch_normalization_2 (Batch (None, 30, 24)            96        
_________________________________________________________________
conv1d_3 (Conv1D)            (None, 30, 32)            2336      
_________________________________________________________________
batch_normalization_3 (Batch (None, 30, 32)            128       
_________________________________________________________________
global_average_pooling1d (Gl (None, 32)                0         
_________________________________________________________________
dense (Dense)                (None, 32)                1056      
_________________________________________________________________
dropout (Dropout)            (None, 32)                0         
_________________________________________________________________
dense_1 (Dense)              (None, 1)                 33        
=================================================================
Total params: 31,233
Trainable params: 31,041
Non-trainable params: 192
_________________________________________________________________
Epoch 1/500
1/1 [==============================] - ETA: 0s - loss: 0.9705 - mae: 0.7809 - rmse: 0.98511/1 [==============================] - 1s 1s/step - loss: 0.9705 - mae: 0.7809 - rmse: 0.9851 - val_loss: 0.9623 - val_mae: 0.8252 - val_rmse: 0.9810
…
