…
input_c0 (InputLayer)           [(None, 150, 102)]   0                                            
__________________________________________________________________________________________________
input_c1 (InputLayer)           [(None, 150, 102)]   0                                            
__________________________________________________________________________________________________
input_c2 (InputLayer)           [(None, 150, 102)]   0                                            
__________________________________________________________________________________________________
conv1d (Conv1D)                 (None, 150, 16)      8176        input_c0[0][0]                   
__________________________________________________________________________________________________
conv1d_4 (Conv1D)               (None, 150, 16)      8176        input_c1[0][0]                   
__________________________________________________________________________________________________
conv1d_8 (Conv1D)               (None, 150, 16)      8176        input_c2[0][0]                   
__________________________________________________________________________________________________
batch_normalization (BatchNorma (None, 150, 16)      64          conv1d[0][0]                     
__________________________________________________________________________________________________
batch_normalization_4 (BatchNor (None, 150, 16)      64          conv1d_4[0][0]                   
__________________________________________________________________________________________________
batch_normalization_8 (BatchNor (None, 150, 16)      64          conv1d_8[0][0]                   
__________________________________________________________________________________________________
max_pooling1d (MaxPooling1D)    (None, 75, 16)       0           batch_normalization[0][0]        
__________________________________________________________________________________________________
max_pooling1d_2 (MaxPooling1D)  (None, 75, 16)       0           batch_normalization_4[0][0]      
__________________________________________________________________________________________________
max_pooling1d_4 (MaxPooling1D)  (None, 75, 16)       0           batch_normalization_8[0][0]      
__________________________________________________________________________________________________
conv1d_1 (Conv1D)               (None, 75, 24)       1176        max_pooling1d[0][0]              
__________________________________________________________________________________________________
conv1d_5 (Conv1D)               (None, 75, 24)       1176        max_pooling1d_2[0][0]            
__________________________________________________________________________________________________
conv1d_9 (Conv1D)               (None, 75, 24)       1176        max_pooling1d_4[0][0]            
__________________________________________________________________________________________________
batch_normalization_1 (BatchNor (None, 75, 24)       96          conv1d_1[0][0]                   
__________________________________________________________________________________________________
batch_normalization_5 (BatchNor (None, 75, 24)       96          conv1d_5[0][0]                   
__________________________________________________________________________________________________
batch_normalization_9 (BatchNor (None, 75, 24)       96          conv1d_9[0][0]                   
__________________________________________________________________________________________________
max_pooling1d_1 (MaxPooling1D)  (None, 37, 24)       0           batch_normalization_1[0][0]      
__________________________________________________________________________________________________
max_pooling1d_3 (MaxPooling1D)  (None, 37, 24)       0           batch_normalization_5[0][0]      
__________________________________________________________________________________________________
max_pooling1d_5 (MaxPooling1D)  (None, 37, 24)       0           batch_normalization_9[0][0]      
__________________________________________________________________________________________________
conv1d_2 (Conv1D)               (None, 37, 24)       1752        max_pooling1d_1[0][0]            
__________________________________________________________________________________________________
conv1d_6 (Conv1D)               (None, 37, 24)       1752        max_pooling1d_3[0][0]            
__________________________________________________________________________________________________
conv1d_10 (Conv1D)              (None, 37, 24)       1752        max_pooling1d_5[0][0]            
__________________________________________________________________________________________________
batch_normalization_2 (BatchNor (None, 37, 24)       96          conv1d_2[0][0]                   
__________________________________________________________________________________________________
batch_normalization_6 (BatchNor (None, 37, 24)       96          conv1d_6[0][0]                   
__________________________________________________________________________________________________
batch_normalization_10 (BatchNo (None, 37, 24)       96          conv1d_10[0][0]                  
__________________________________________________________________________________________________
conv1d_3 (Conv1D)               (None, 37, 32)       2336        batch_normalization_2[0][0]      
__________________________________________________________________________________________________
conv1d_7 (Conv1D)               (None, 37, 32)       2336        batch_normalization_6[0][0]      
__________________________________________________________________________________________________
conv1d_11 (Conv1D)              (None, 37, 32)       2336        batch_normalization_10[0][0]     
__________________________________________________________________________________________________
batch_normalization_3 (BatchNor (None, 37, 32)       128         conv1d_3[0][0]                   
__________________________________________________________________________________________________
batch_normalization_7 (BatchNor (None, 37, 32)       128         conv1d_7[0][0]                   
__________________________________________________________________________________________________
batch_normalization_11 (BatchNo (None, 37, 32)       128         conv1d_11[0][0]                  
__________________________________________________________________________________________________
global_average_pooling1d (Globa (None, 32)           0           batch_normalization_3[0][0]      
__________________________________________________________________________________________________
global_average_pooling1d_1 (Glo (None, 32)           0           batch_normalization_7[0][0]      
__________________________________________________________________________________________________
global_average_pooling1d_2 (Glo (None, 32)           0           batch_normalization_11[0][0]     
__________________________________________________________________________________________________
late_fusion_concat (Concatenate (None, 96)           0           global_average_pooling1d[0][0]   
                                                                 global_average_pooling1d_1[0][0] 
                                                                 global_average_pooling1d_2[0][0] 
2026-05-26 17:40:47.688013: I tensorflow/compiler/mlir/mlir_graph_optimization_pass.cc:116] None of the MLIR optimization passes are enabled (registered 2)
2026-05-26 17:40:47.688666: I tensorflow/core/platform/profile_utils/cpu_utils.cc:112] CPU Frequency: 2100000000 Hz
__________________________________________________________________________________________________
dense (Dense)                   (None, 64)           6208        late_fusion_concat[0][0]         
__________________________________________________________________________________________________
dropout (Dropout)               (None, 64)           0           dense[0][0]                      
__________________________________________________________________________________________________
dense_1 (Dense)                 (None, 32)           2080        dropout[0][0]                    
__________________________________________________________________________________________________
dense_2 (Dense)                 (None, 1)            33          dense_1[0][0]                    
==================================================================================================
Total params: 49,793
Trainable params: 49,217
Non-trainable params: 576
__________________________________________________________________________________________________
Epoch 1/500
1/1 [==============================] - ETA: 0s - loss: 0.8877 - mae: 0.7728 - rmse: 0.94221/1 [==============================] - 3s 3s/step - loss: 0.8877 - mae: 0.7728 - rmse: 0.9422 - val_loss: 0.8654 - val_mae: 0.8452 - val_rmse: 0.9303
…
