…
Output: /mvdlph/shahd/MVCNNPH/results_multiview_E3_early_fusion_velocity_only/len150
Fit samples: 33
Validation samples: 10
Test samples: 11
Bad files: 0
Incomplete camera trials: 1
Skipped non-E3 files: 13779
X_fit shape: (33, 150, 306)
X_val shape: (10, 150, 306)
X_test shape: (11, 150, 306)
Model: "model"
_________________________________________________________________
Layer (type)                 Output Shape              Param #   
=================================================================
early_fusion_input (InputLay [(None, 150, 306)]        0         
_________________________________________________________________
conv1d (Conv1D)              (None, 150, 16)           24496     
_________________________________________________________________
batch_normalization (BatchNo (None, 150, 16)           64        
_________________________________________________________________
max_pooling1d (MaxPooling1D) (None, 75, 16)            0         
_________________________________________________________________
conv1d_1 (Conv1D)            (None, 75, 24)            1176      
_________________________________________________________________
batch_normalization_1 (Batch (None, 75, 24)            96        
_________________________________________________________________
max_pooling1d_1 (MaxPooling1 (None, 37, 24)            0         
_________________________________________________________________
conv1d_2 (Conv1D)            (None, 37, 24)            1752      
_________________________________________________________________
batch_normalization_2 (Batch (None, 37, 24)            96        
_________________________________________________________________
conv1d_3 (Conv1D)            (None, 37, 32)            2336      
_________________________________________________________________
batch_normalization_3 (Batch (None, 37, 32)            128       
_________________________________________________________________
global_average_pooling1d (Gl (None, 32)                0         
_________________________________________________________________
dense (Dense)                (None, 32)                1056      
_________________________________________________________________
dropout (Dropout)            (None, 32)                0         
_________________________________________________________________
dense_1 (Dense)              (None, 1)                 33        
=================================================================
Total params: 31,233
Trainable params: 31,041
Non-trainable params: 192
_________________________________________________________________
Epoch 1/500
1/1 [==============================] - ETA: 0s - loss: 0.9786 - mae: 0.7532 - rmse: 0.98931/1 [==============================] - 1s 1s/step - loss: 0.9786 - mae: 0.7532 - rmse: 0.9893 - val_loss: 0.6817 - val_mae: 0.6933 - val_rmse: 0.8257
…
