…
Fit samples: 33
Validation samples: 10
Test samples: 16
Bad files: 22
Incomplete camera trials: 1
Label mismatches: 0
Skipped non-target files: 13623
X_fit shape: (33, 120, 306)
X_val shape: (10, 120, 306)
X_test shape: (16, 120, 306)
Model: "model"
_________________________________________________________________
Layer (type)                 Output Shape              Param #   
=================================================================
early_fusion_input (InputLay [(None, 120, 306)]        0         
_________________________________________________________________
conv1d (Conv1D)              (None, 120, 16)           24496     
_________________________________________________________________
batch_normalization (BatchNo (None, 120, 16)           64        
_________________________________________________________________
max_pooling1d (MaxPooling1D) (None, 60, 16)            0         
_________________________________________________________________
conv1d_1 (Conv1D)            (None, 60, 24)            1176      
_________________________________________________________________
batch_normalization_1 (Batch (None, 60, 24)            96        
_________________________________________________________________
max_pooling1d_1 (MaxPooling1 (None, 30, 24)            0         
_________________________________________________________________
conv1d_2 (Conv1D)            (None, 30, 24)            1752      
_________________________________________________________________
batch_normalization_2 (Batch (None, 30, 24)            96        
_________________________________________________________________
conv1d_3 (Conv1D)            (None, 30, 32)            2336      
_________________________________________________________________
batch_normalization_3 (Batch (None, 30, 32)            128       
_________________________________________________________________
global_average_pooling1d (Gl (None, 32)                0         
_________________________________________________________________
dense (Dense)                (None, 32)                1056      
_________________________________________________________________
dropout (Dropout)            (None, 32)                0         
_________________________________________________________________
dense_1 (Dense)              (None, 1)                 33        
=================================================================
Total params: 31,233
Trainable params: 31,041
Non-trainable params: 192
_________________________________________________________________
Epoch 1/500
1/1 [==============================] - ETA: 0s - loss: 0.9553 - mae: 0.7824 - rmse: 0.97741/1 [==============================] - 1s 1s/step - loss: 0.9553 - mae: 0.7824 - rmse: 0.9774 - val_loss: 1.0105 - val_mae: 0.8497 - val_rmse: 1.0052
…
