…
input_c0 (InputLayer)           [(None, 120, 102)]   0                                            
__________________________________________________________________________________________________
input_c1 (InputLayer)           [(None, 120, 102)]   0                                            
__________________________________________________________________________________________________
input_c2 (InputLayer)           [(None, 120, 102)]   0                                            
__________________________________________________________________________________________________
conv1d (Conv1D)                 (None, 120, 16)      8176        input_c0[0][0]                   
__________________________________________________________________________________________________
conv1d_2 (Conv1D)               (None, 120, 16)      8176        input_c1[0][0]                   
__________________________________________________________________________________________________
conv1d_4 (Conv1D)               (None, 120, 16)      8176        input_c2[0][0]                   
__________________________________________________________________________________________________
batch_normalization (BatchNorma (None, 120, 16)      64          conv1d[0][0]                     
__________________________________________________________________________________________________
batch_normalization_2 (BatchNor (None, 120, 16)      64          conv1d_2[0][0]                   
__________________________________________________________________________________________________
batch_normalization_4 (BatchNor (None, 120, 16)      64          conv1d_4[0][0]                   
__________________________________________________________________________________________________
max_pooling1d (MaxPooling1D)    (None, 60, 16)       0           batch_normalization[0][0]        
__________________________________________________________________________________________________
max_pooling1d_2 (MaxPooling1D)  (None, 60, 16)       0           batch_normalization_2[0][0]      
__________________________________________________________________________________________________
max_pooling1d_4 (MaxPooling1D)  (None, 60, 16)       0           batch_normalization_4[0][0]      
__________________________________________________________________________________________________
conv1d_1 (Conv1D)               (None, 60, 24)       1176        max_pooling1d[0][0]              
__________________________________________________________________________________________________
conv1d_3 (Conv1D)               (None, 60, 24)       1176        max_pooling1d_2[0][0]            
__________________________________________________________________________________________________
conv1d_5 (Conv1D)               (None, 60, 24)       1176        max_pooling1d_4[0][0]            
__________________________________________________________________________________________________
batch_normalization_1 (BatchNor (None, 60, 24)       96          conv1d_1[0][0]                   
__________________________________________________________________________________________________
batch_normalization_3 (BatchNor (None, 60, 24)       96          conv1d_3[0][0]                   
__________________________________________________________________________________________________
batch_normalization_5 (BatchNor (None, 60, 24)       96          conv1d_5[0][0]                   
__________________________________________________________________________________________________
max_pooling1d_1 (MaxPooling1D)  (None, 30, 24)       0           batch_normalization_1[0][0]      
__________________________________________________________________________________________________
max_pooling1d_3 (MaxPooling1D)  (None, 30, 24)       0           batch_normalization_3[0][0]      
__________________________________________________________________________________________________
max_pooling1d_5 (MaxPooling1D)  (None, 30, 24)       0           batch_normalization_5[0][0]      
__________________________________________________________________________________________________
middle_concat (Concatenate)     (None, 30, 72)       0           max_pooling1d_1[0][0]            
                                                                 max_pooling1d_3[0][0]            
                                                                 max_pooling1d_5[0][0]            
__________________________________________________________________________________________________
conv1d_6 (Conv1D)               (None, 30, 32)       6944        middle_concat[0][0]              
__________________________________________________________________________________________________
batch_normalization_6 (BatchNor (None, 30, 32)       128         conv1d_6[0][0]                   
__________________________________________________________________________________________________
conv1d_7 (Conv1D)               (None, 30, 48)       4656        batch_normalization_6[0][0]      
__________________________________________________________________________________________________
batch_normalization_7 (BatchNor (None, 30, 48)       192         conv1d_7[0][0]                   
__________________________________________________________________________________________________
global_average_pooling1d (Globa (None, 48)           0           batch_normalization_7[0][0]      
__________________________________________________________________________________________________
dense (Dense)                   (None, 64)           3136        global_average_pooling1d[0][0]   
__________________________________________________________________________________________________
dropout (Dropout)               (None, 64)           0           dense[0][0]                      
__________________________________________________________________________________________________
dense_1 (Dense)                 (None, 32)           2080        dropout[0][0]                    
__________________________________________________________________________________________________
dense_2 (Dense)                 (None, 1)            33          dense_1[0][0]                    
==================================================================================================
Total params: 45,705
Trainable params: 45,305
Non-trainable params: 400
__________________________________________________________________________________________________
Epoch 1/500
1/1 [==============================] - ETA: 0s - loss: 0.8575 - mae: 0.7097 - rmse: 0.92601/1 [==============================] - 2s 2s/step - loss: 0.8575 - mae: 0.7097 - rmse: 0.9260 - val_loss: 0.9656 - val_mae: 0.8239 - val_rmse: 0.9827
…
