…
X_test shape: (107, 150, 306)
Exercise input shape: (1242,)
Model: "model"
__________________________________________________________________________________________________
Layer (type)                    Output Shape         Param #     Connected to                     
==================================================================================================
multiview_sequence_input (Input [(None, 150, 306)]   0                                            
__________________________________________________________________________________________________
conv1d (Conv1D)                 (None, 150, 16)      24496       multiview_sequence_input[0][0]   
__________________________________________________________________________________________________
batch_normalization (BatchNorma (None, 150, 16)      64          conv1d[0][0]                     
__________________________________________________________________________________________________
max_pooling1d (MaxPooling1D)    (None, 75, 16)       0           batch_normalization[0][0]        
__________________________________________________________________________________________________
conv1d_1 (Conv1D)               (None, 75, 24)       1176        max_pooling1d[0][0]              
__________________________________________________________________________________________________
batch_normalization_1 (BatchNor (None, 75, 24)       96          conv1d_1[0][0]                   
__________________________________________________________________________________________________
max_pooling1d_1 (MaxPooling1D)  (None, 37, 24)       0           batch_normalization_1[0][0]      
__________________________________________________________________________________________________
conv1d_2 (Conv1D)               (None, 37, 24)       1752        max_pooling1d_1[0][0]            
__________________________________________________________________________________________________
batch_normalization_2 (BatchNor (None, 37, 24)       96          conv1d_2[0][0]                   
__________________________________________________________________________________________________
conv1d_3 (Conv1D)               (None, 37, 32)       2336        batch_normalization_2[0][0]      
__________________________________________________________________________________________________
exercise_input (InputLayer)     [(None, 1)]          0                                            
__________________________________________________________________________________________________
batch_normalization_3 (BatchNor (None, 37, 32)       128         conv1d_3[0][0]                   
__________________________________________________________________________________________________
exercise_embedding (Embedding)  (None, 1, 4)         40          exercise_input[0][0]             
__________________________________________________________________________________________________
global_average_pooling1d (Globa (None, 32)           0           batch_normalization_3[0][0]      
__________________________________________________________________________________________________
flatten (Flatten)               (None, 4)            0           exercise_embedding[0][0]         
__________________________________________________________________________________________________
concatenate (Concatenate)       (None, 36)           0           global_average_pooling1d[0][0]   
                                                                 flatten[0][0]                    
__________________________________________________________________________________________________
dense (Dense)                   (None, 32)           1184        concatenate[0][0]                
__________________________________________________________________________________________________
dropout (Dropout)               (None, 32)           0           dense[0][0]                      
__________________________________________________________________________________________________
dense_1 (Dense)                 (None, 1)            33          dropout[0][0]                    
==================================================================================================
Total params: 31,401
Trainable params: 31,209
Non-trainable params: 192
__________________________________________________________________________________________________
Epoch 1/500
1/5 [=====>........................] - ETA: 11s - loss: 1.0032 - mae: 0.8
…
