…
Incomplete trials: 0
Train camera counts: Counter({'C0': 33})
Validation camera counts: Counter({'C0': 10})
Test camera counts: Counter({'C0': 16})
X_fit shape: (33, 120, 102)
X_val shape: (10, 120, 102)
X_test shape: (16, 120, 102)
Model: "model"
_________________________________________________________________
Layer (type)                 Output Shape              Param #   
=================================================================
sequence_input (InputLayer)  [(None, 120, 102)]        0         
_________________________________________________________________
conv1d (Conv1D)              (None, 120, 16)           8176      
_________________________________________________________________
batch_normalization (BatchNo (None, 120, 16)           64        
_________________________________________________________________
max_pooling1d (MaxPooling1D) (None, 60, 16)            0         
_________________________________________________________________
conv1d_1 (Conv1D)            (None, 60, 24)            1176      
_________________________________________________________________
batch_normalization_1 (Batch (None, 60, 24)            96        
_________________________________________________________________
max_pooling1d_1 (MaxPooling1 (None, 30, 24)            0         
_________________________________________________________________
conv1d_2 (Conv1D)            (None, 30, 24)            1752      
_________________________________________________________________
batch_normalization_2 (Batch (None, 30, 24)            96        
_________________________________________________________________
conv1d_3 (Conv1D)            (None, 30, 32)            2336      
_________________________________________________________________
batch_normalization_3 (Batch (None, 30, 32)            128       
_________________________________________________________________
global_average_pooling1d (Gl (None, 32)                0         
_________________________________________________________________
dense (Dense)                (None, 32)                1056      
_________________________________________________________________
dropout (Dropout)            (None, 32)                0         
_________________________________________________________________
dense_1 (Dense)              (None, 1)                 33        
=================================================================
Total params: 14,913
Trainable params: 14,721
Non-trainable params: 192
_________________________________________________________________
Epoch 1/500
1/1 [==============================] - ETA: 0s - loss: 1.1138 - mae: 0.8527 - rmse: 1.05541/1 [==============================] - 1s 1s/step - loss: 1.1138 - mae: 0.8527 - rmse: 1.0554 - val_loss: 0.9126 - val_mae: 0.8466 - val_rmse: 0.9553
…
