…
=================================================

Total samples: 54
Fit samples: 38
Validation samples: 8
Test samples: 8
Bad files: 0
Skipped non-target files: 14850
Incomplete trials: 0
X_fit shape: (38, 150, 153)
X_val shape: (8, 150, 153)
X_test shape: (8, 150, 153)
Model: "model"
_________________________________________________________________
Layer (type)                 Output Shape              Param #   
=================================================================
sequence_input (InputLayer)  [(None, 150, 153)]        0         
_________________________________________________________________
conv1d (Conv1D)              (None, 150, 16)           12256     
_________________________________________________________________
batch_normalization (BatchNo (None, 150, 16)           64        
_________________________________________________________________
max_pooling1d (MaxPooling1D) (None, 75, 16)            0         
_________________________________________________________________
conv1d_1 (Conv1D)            (None, 75, 24)            1176      
_________________________________________________________________
batch_normalization_1 (Batch (None, 75, 24)            96        
_________________________________________________________________
max_pooling1d_1 (MaxPooling1 (None, 37, 24)            0         
_________________________________________________________________
conv1d_2 (Conv1D)            (None, 37, 24)            1752      
_________________________________________________________________
batch_normalization_2 (Batch (None, 37, 24)            96        
_________________________________________________________________
conv1d_3 (Conv1D)            (None, 37, 32)            2336      
_________________________________________________________________
batch_normalization_3 (Batch (None, 37, 32)            128       
_________________________________________________________________
global_average_pooling1d (Gl (None, 32)                0         
_________________________________________________________________
dense (Dense)                (None, 32)                1056      
_________________________________________________________________
dropout (Dropout)            (None, 32)                0         
_________________________________________________________________
dense_1 (Dense)              (None, 1)                 33        
=================================================================
Total params: 18,993
Trainable params: 18,801
Non-trainable params: 192
_________________________________________________________________
Epoch 1/500
1/3 [=========>....................] - ETA: 1s - loss: 0.9881 - mae: 0.8298 - rmse: 0.99403/3 [==============================] - 1s 203ms/step - loss: 0.9859 - mae: 0.7889 - rmse: 0.9926 - val_loss: 3.1529 - val_mae: 1.2870 - val_rmse: 1.7756
…
